…
Labeling CSV file: 100%|¨€¨€¨€¨€¨€¨€¨€¨€¨€¨€| 1/1 [00:00<?, ? items/s]
Found 19242 images belonging to 2 classes.
Found 4951 images belonging to 2 classes.
Found 1 images belonging to 1 classes.
Found 1 images belonging to 1 classes.

Available model to train:
CNN
AlexNet
ResNet
VGG16
VGG19
VGG16PT
AlexNetMod
AlexNetMod2a

Please select a model:AlexNetMod2a
_________________________________________________________________
Layer (type)                 Output Shape              Param #   
=================================================================
conv2d_1 (Conv2D)            (None, 254, 254, 24)      672       
_________________________________________________________________
max_pooling2d_1 (MaxPooling2 (None, 126, 126, 24)      0         
_________________________________________________________________
conv2d_2 (Conv2D)            (None, 126, 126, 64)      13888     
_________________________________________________________________
max_pooling2d_2 (MaxPooling2 (None, 62, 62, 64)        0         
_________________________________________________________________
conv2d_3 (Conv2D)            (None, 62, 62, 96)        55392     
_________________________________________________________________
conv2d_4 (Conv2D)            (None, 62, 62, 96)        83040     
_________________________________________________________________
conv2d_5 (Conv2D)            (None, 62, 62, 64)        55360     
_________________________________________________________________
max_pooling2d_3 (MaxPooling2 (None, 30, 30, 64)        0         
_________________________________________________________________
flatten_1 (Flatten)          (None, 57600)             0         
_________________________________________________________________
dense_1 (Dense)              (None, 128)               7372928   
_________________________________________________________________
dropout_1 (Dropout)          (None, 128)               0         
_________________________________________________________________
dense_2 (Dense)              (None, 128)               16512     
_________________________________________________________________
dropout_2 (Dropout)          (None, 128)               0         
_________________________________________________________________
dense_3 (Dense)              (None, 1)                 129       
=================================================================
Total params: 7,597,921
Trainable params: 7,597,921
Non-trainable params: 0
_________________________________________________________________
Model training started at: 2019-04-24 01:35:32
Epoch 1/20
2019-04-24 01:35:33.529872: I tensorflow/core/platform/cpu_feature_guard.cc:141] Your CPU supports instructions that this TensorFlow binary was not compiled to use: AVX2
…
