…
147779  a33cac3aa.jpg  E:\Developing\TrainingSet\train_v2\a33cac3aa.jpg       0
Labeling CSV file: 100%|¨€¨€¨€¨€¨€¨€¨€¨€¨€¨€| 1/1 [00:00<00:00, 1000.31 items/s]
Found 19242 images belonging to 2 classes.
Found 4951 images belonging to 2 classes.
Found 1 images belonging to 1 classes.
Found 1 images belonging to 1 classes.

Available model to train:
CNN
AlexNet
ResNet
VGG16
VGG19
VGG16PT
AlexNetMod

Please select a model:CNN
_________________________________________________________________
Layer (type)                 Output Shape              Param #   
=================================================================
conv2d_1 (Conv2D)            (None, 254, 254, 32)      896       
_________________________________________________________________
max_pooling2d_1 (MaxPooling2 (None, 127, 127, 32)      0         
_________________________________________________________________
conv2d_2 (Conv2D)            (None, 125, 125, 32)      9248      
_________________________________________________________________
max_pooling2d_2 (MaxPooling2 (None, 62, 62, 32)        0         
_________________________________________________________________
conv2d_3 (Conv2D)            (None, 60, 60, 32)        9248      
_________________________________________________________________
max_pooling2d_3 (MaxPooling2 (None, 30, 30, 32)        0         
_________________________________________________________________
flatten_1 (Flatten)          (None, 28800)             0         
_________________________________________________________________
dense_1 (Dense)              (None, 128)               3686528   
_________________________________________________________________
dense_2 (Dense)              (None, 1)                 129       
=================================================================
Total params: 3,706,049
Trainable params: 3,706,049
Non-trainable params: 0
_________________________________________________________________
Model training started at: 2019-04-19 02:28:11
Epoch 1/20
2019-04-19 02:28:12.659063: I tensorflow/core/platform/cpu_feature_guard.cc:141] Your CPU supports instructions that this TensorFlow binary was not compiled to use: AVX2
…
