…
147779  a33cac3aa.jpg  E:\Developing\TrainingSet\train_v2\a33cac3aa.jpg       0
Labeling CSV file: 100%|¨€¨€¨€¨€¨€¨€¨€¨€¨€¨€| 1/1 [00:00<?, ? items/s]
Found 19242 images belonging to 2 classes.
Found 4951 images belonging to 2 classes.
Found 1 images belonging to 1 classes.
Found 1 images belonging to 1 classes.

Available model to train:
CNN
AlexNet
ResNet
VGG16
VGG19

Please select a model:VGG16
_________________________________________________________________
Layer (type)                 Output Shape              Param #   
=================================================================
conv2d_1 (Conv2D)            (None, 256, 256, 16)      448       
_________________________________________________________________
conv2d_2 (Conv2D)            (None, 256, 256, 16)      2320      
_________________________________________________________________
max_pooling2d_1 (MaxPooling2 (None, 128, 128, 16)      0         
_________________________________________________________________
conv2d_3 (Conv2D)            (None, 128, 128, 32)      4640      
_________________________________________________________________
conv2d_4 (Conv2D)            (None, 128, 128, 32)      9248      
_________________________________________________________________
max_pooling2d_2 (MaxPooling2 (None, 64, 64, 32)        0         
_________________________________________________________________
conv2d_5 (Conv2D)            (None, 64, 64, 64)        18496     
_________________________________________________________________
conv2d_6 (Conv2D)            (None, 64, 64, 64)        36928     
_________________________________________________________________
conv2d_7 (Conv2D)            (None, 64, 64, 64)        36928     
_________________________________________________________________
max_pooling2d_3 (MaxPooling2 (None, 32, 32, 64)        0         
_________________________________________________________________
conv2d_8 (Conv2D)            (None, 32, 32, 128)       73856     
_________________________________________________________________
conv2d_9 (Conv2D)            (None, 32, 32, 128)       147584    
_________________________________________________________________
conv2d_10 (Conv2D)           (None, 32, 32, 128)       147584    
_________________________________________________________________
max_pooling2d_4 (MaxPooling2 (None, 16, 16, 128)       0         
_________________________________________________________________
conv2d_11 (Conv2D)           (None, 16, 16, 256)       295168    
_________________________________________________________________
conv2d_12 (Conv2D)           (None, 16, 16, 256)       590080    
_________________________________________________________________
conv2d_13 (Conv2D)           (None, 16, 16, 256)       590080    
_________________________________________________________________
max_pooling2d_5 (MaxPooling2 (None, 8, 8, 256)         0         
_________________________________________________________________
flatten_1 (Flatten)          (None, 16384)             0         
_________________________________________________________________
dense_1 (Dense)              (None, 256)               4194560   
_________________________________________________________________
dropout_1 (Dropout)          (None, 256)               0         
_________________________________________________________________
dense_2 (Dense)              (None, 128)               32896     
_________________________________________________________________
dropout_2 (Dropout)          (None, 128)               0         
_________________________________________________________________
dense_3 (Dense)              (None, 1)                 129       
=================================================================
Total params: 6,180,945
Trainable params: 6,180,945
Non-trainable params: 0
_________________________________________________________________
Model training started at: 2019-04-09 08:54:10
Epoch 1/20
2019-04-09 08:54:10.869423: I tensorflow/core/platform/cpu_feature_guard.cc:141] Your CPU supports instructions that this TensorFlow binary was not compiled to use: AVX2
…
