…
147779  a33cac3aa.jpg  E:\Developing\TrainingSet\train_v2\a33cac3aa.jpg       0
Labeling CSV file: 100%|¨€¨€¨€¨€¨€¨€¨€¨€¨€¨€| 1/1 [00:00<?, ? items/s]
Found 19242 images belonging to 2 classes.
Found 4951 images belonging to 2 classes.
Found 1 images belonging to 1 classes.
Found 1 images belonging to 1 classes.

Available model to train:
CNN
AlexNet
ResNet
VGG16
VGG19
VGG16PT
AlexNetMod

Please select a model:AlexNetMod
_________________________________________________________________
Layer (type)                 Output Shape              Param #   
=================================================================
conv2d_1 (Conv2D)            (None, 62, 62, 96)        34944     
_________________________________________________________________
max_pooling2d_1 (MaxPooling2 (None, 30, 30, 96)        0         
_________________________________________________________________
conv2d_2 (Conv2D)            (None, 30, 30, 256)       614656    
_________________________________________________________________
max_pooling2d_2 (MaxPooling2 (None, 14, 14, 256)       0         
_________________________________________________________________
conv2d_3 (Conv2D)            (None, 14, 14, 384)       885120    
_________________________________________________________________
conv2d_4 (Conv2D)            (None, 14, 14, 384)       1327488   
_________________________________________________________________
conv2d_5 (Conv2D)            (None, 14, 14, 256)       884992    
_________________________________________________________________
max_pooling2d_3 (MaxPooling2 (None, 6, 6, 256)         0         
_________________________________________________________________
flatten_1 (Flatten)          (None, 9216)              0         
_________________________________________________________________
dense_1 (Dense)              (None, 128)               1179776   
_________________________________________________________________
dropout_1 (Dropout)          (None, 128)               0         
_________________________________________________________________
dense_2 (Dense)              (None, 128)               16512     
_________________________________________________________________
dropout_2 (Dropout)          (None, 128)               0         
_________________________________________________________________
dense_3 (Dense)              (None, 1)                 129       
=================================================================
Total params: 4,943,617
Trainable params: 4,943,617
Non-trainable params: 0
_________________________________________________________________
Model training started at: 2019-04-13 02:29:09
Epoch 1/20
2019-04-13 02:29:10.661199: I tensorflow/core/platform/cpu_feature_guard.cc:141] Your CPU supports instructions that this TensorFlow binary was not compiled to use: AVX2
…
