…
Since 25,000 original images will be used, data augmentation will be turned ON.
Labeling CSV file: 100%|¨€¨€¨€¨€¨€¨€¨€¨€¨€¨€| 25000/25000 [00:00<00:00, 27725.74 items/s]
Labeling CSV file: 100%|¨€¨€¨€¨€¨€¨€¨€¨€¨€¨€| 1/1 [00:00<00:00, 1000.31 items/s]
Found 19242 images belonging to 2 classes.
Found 4951 images belonging to 2 classes.
Found 1 images belonging to 1 classes.
Found 1 images belonging to 1 classes.
_________________________________________________________________
Layer (type)                 Output Shape              Param #   
=================================================================
conv2d_1 (Conv2D)            (None, 224, 224, 64)      1792      
_________________________________________________________________
conv2d_2 (Conv2D)            (None, 224, 224, 64)      36928     
_________________________________________________________________
max_pooling2d_1 (MaxPooling2 (None, 112, 112, 64)      0         
_________________________________________________________________
conv2d_3 (Conv2D)            (None, 112, 112, 128)     73856     
_________________________________________________________________
conv2d_4 (Conv2D)            (None, 112, 112, 128)     147584    
_________________________________________________________________
max_pooling2d_2 (MaxPooling2 (None, 56, 56, 128)       0         
_________________________________________________________________
conv2d_5 (Conv2D)            (None, 56, 56, 256)       295168    
_________________________________________________________________
conv2d_6 (Conv2D)            (None, 56, 56, 256)       590080    
_________________________________________________________________
conv2d_7 (Conv2D)            (None, 56, 56, 256)       590080    
_________________________________________________________________
max_pooling2d_3 (MaxPooling2 (None, 28, 28, 256)       0         
_________________________________________________________________
conv2d_8 (Conv2D)            (None, 28, 28, 512)       1180160   
_________________________________________________________________
conv2d_9 (Conv2D)            (None, 28, 28, 512)       2359808   
_________________________________________________________________
conv2d_10 (Conv2D)           (None, 28, 28, 512)       2359808   
_________________________________________________________________
max_pooling2d_4 (MaxPooling2 (None, 14, 14, 512)       0         
_________________________________________________________________
conv2d_11 (Conv2D)           (None, 14, 14, 512)       2359808   
_________________________________________________________________
conv2d_12 (Conv2D)           (None, 14, 14, 512)       2359808   
_________________________________________________________________
conv2d_13 (Conv2D)           (None, 14, 14, 512)       2359808   
_________________________________________________________________
max_pooling2d_5 (MaxPooling2 (None, 7, 7, 512)         0         
_________________________________________________________________
flatten_1 (Flatten)          (None, 25088)             0         
_________________________________________________________________
dense_1 (Dense)              (None, 4096)              102764544 
_________________________________________________________________
dropout_1 (Dropout)          (None, 4096)              0         
_________________________________________________________________
dense_2 (Dense)              (None, 4096)              16781312  
_________________________________________________________________
dropout_2 (Dropout)          (None, 4096)              0         
_________________________________________________________________
dense_3 (Dense)              (None, 1)                 4097      
=================================================================
Total params: 134,264,641
Trainable params: 134,264,641
Non-trainable params: 0
_________________________________________________________________
Model training started at: 2019-04-03 09:54:08
Epoch 1/20
2019-04-03 09:54:09.512140: I tensorflow/core/platform/cpu_feature_guard.cc:141] Your CPU supports instructions that this TensorFlow binary was not compiled to use: AVX2
…
