…
Sampled mode will use 25,000 original images, data augmentation will be turned ON.
Found 19242 images belonging to 2 classes.
Found 4951 images belonging to 2 classes.
Found 1 images belonging to 1 classes.
Found 1 images belonging to 1 classes.

Available model to train:
CNN
AlexNet
AlexNetMod_D
AlexNetMod_D_F
AlexNetMod_D_F_KS
AlexNetMod_D_KS
ResNetPT
VGG16
VGG16Mod
VGG16PT

Please select a model:CNN
_________________________________________________________________
Layer (type)                 Output Shape              Param #   
=================================================================
conv2d_1 (Conv2D)            (None, 254, 254, 32)      896       
_________________________________________________________________
max_pooling2d_1 (MaxPooling2 (None, 127, 127, 32)      0         
_________________________________________________________________
conv2d_2 (Conv2D)            (None, 125, 125, 32)      9248      
_________________________________________________________________
max_pooling2d_2 (MaxPooling2 (None, 62, 62, 32)        0         
_________________________________________________________________
conv2d_3 (Conv2D)            (None, 60, 60, 32)        9248      
_________________________________________________________________
max_pooling2d_3 (MaxPooling2 (None, 30, 30, 32)        0         
_________________________________________________________________
flatten_1 (Flatten)          (None, 28800)             0         
_________________________________________________________________
dense_1 (Dense)              (None, 128)               3686528   
_________________________________________________________________
dense_2 (Dense)              (None, 1)                 129       
=================================================================
Total params: 3,706,049
Trainable params: 3,706,049
Non-trainable params: 0
_________________________________________________________________
Started at: 2019-04-30 13:37:32.
Epoch 1/20

 1/80 [..............................] - ETA: 12:54 - loss: 0.6817 - acc: 0.6880
 2/80 [..............................] - ETA: 6:33 - loss: 0.6736 - acc: 0.7020 
…
