…
Sampled mode will use 25,000 original images, data augmentation will be turned ON.
Found 19242 images belonging to 2 classes.
Found 4951 images belonging to 2 classes.
Found 1 images belonging to 1 classes.
Found 1 images belonging to 1 classes.

Available model to train:
CNN
AlexNet
AlexNetMod_D
AlexNetMod_D_F
AlexNetMod_D_F_KS
AlexNetMod_D_KS
ResNetPT
VGG16
VGG16Mod
VGG16PT

Please select a model:AlexNet
_________________________________________________________________
Layer (type)                 Output Shape              Param #   
=================================================================
conv2d_1 (Conv2D)            (None, 62, 62, 96)        34944     
_________________________________________________________________
max_pooling2d_1 (MaxPooling2 (None, 30, 30, 96)        0         
_________________________________________________________________
conv2d_2 (Conv2D)            (None, 30, 30, 256)       614656    
_________________________________________________________________
max_pooling2d_2 (MaxPooling2 (None, 14, 14, 256)       0         
_________________________________________________________________
conv2d_3 (Conv2D)            (None, 14, 14, 384)       885120    
_________________________________________________________________
conv2d_4 (Conv2D)            (None, 14, 14, 384)       1327488   
_________________________________________________________________
conv2d_5 (Conv2D)            (None, 14, 14, 256)       884992    
_________________________________________________________________
max_pooling2d_3 (MaxPooling2 (None, 6, 6, 256)         0         
_________________________________________________________________
flatten_1 (Flatten)          (None, 9216)              0         
_________________________________________________________________
dense_1 (Dense)              (None, 4096)              37752832  
_________________________________________________________________
dropout_1 (Dropout)          (None, 4096)              0         
_________________________________________________________________
dense_2 (Dense)              (None, 4096)              16781312  
_________________________________________________________________
dropout_2 (Dropout)          (None, 4096)              0         
_________________________________________________________________
dense_3 (Dense)              (None, 1)                 4097      
=================================================================
Total params: 58,285,441
Trainable params: 58,285,441
Non-trainable params: 0
_________________________________________________________________
Started at: 2019-04-30 17:49:55.
Epoch 1/20

 1/80 [..............................] - ETA: 17:25 - loss: 0.6928 - acc: 0.5680
 2/80 [..............................] - ETA: 8:45 - loss: 1.7645 - acc: 0.6340 
…
