…
Sample 50k will use 25,000 original images, data augmentation will be turned ON.
Found 19242 images belonging to 2 classes.
Found 4951 images belonging to 2 classes.
Found 1 images belonging to 1 classes.
Found 1 images belonging to 1 classes.

Available model to train:
CNN
AlexNet
AlexNetMod_D
AlexNetMod_D_F
AlexNetMod_D_F_KS
AlexNetMod_D_KS
ResNetPT
VGG16
VGG16Mod
VGG16PT

Please select a model:AlexNetMod_D
_________________________________________________________________
Layer (type)                 Output Shape              Param #   
=================================================================
conv2d_1 (Conv2D)            (None, 62, 62, 96)        34944     
_________________________________________________________________
max_pooling2d_1 (MaxPooling2 (None, 30, 30, 96)        0         
_________________________________________________________________
conv2d_2 (Conv2D)            (None, 30, 30, 256)       614656    
_________________________________________________________________
max_pooling2d_2 (MaxPooling2 (None, 14, 14, 256)       0         
_________________________________________________________________
conv2d_3 (Conv2D)            (None, 14, 14, 384)       885120    
_________________________________________________________________
conv2d_4 (Conv2D)            (None, 14, 14, 384)       1327488   
_________________________________________________________________
conv2d_5 (Conv2D)            (None, 14, 14, 256)       884992    
_________________________________________________________________
max_pooling2d_3 (MaxPooling2 (None, 6, 6, 256)         0         
_________________________________________________________________
flatten_1 (Flatten)          (None, 9216)              0         
_________________________________________________________________
dense_1 (Dense)              (None, 128)               1179776   
_________________________________________________________________
dropout_1 (Dropout)          (None, 128)               0         
_________________________________________________________________
dense_2 (Dense)              (None, 128)               16512     
_________________________________________________________________
dropout_2 (Dropout)          (None, 128)               0         
_________________________________________________________________
dense_3 (Dense)              (None, 1)                 129       
=================================================================
Total params: 4,943,617
Trainable params: 4,943,617
Non-trainable params: 0
_________________________________________________________________
Started at:2019-04-30 11:28:26.

Epoch 1/20

 1/80 [..............................] - ETA: 13:45 - loss: 0.6922 - acc: 0.6920
 2/80 [..............................] - ETA: 6:55 - loss: 0.6853 - acc: 0.6800 
…
