…
Sampled mode will use 25,000 original images, data augmentation will be turned ON.
Found 19242 images belonging to 2 classes.
Found 4951 images belonging to 2 classes.
Found 1 images belonging to 1 classes.
Found 1 images belonging to 1 classes.

Available model to train:
CNN
AlexNet
AlexNetMod_D
AlexNetMod_D_F
AlexNetMod_D_F_KS
AlexNetMod_D_KS
ResNetPT
VGG16
VGG16Mod
VGG16PT

Please select a model:VGG16PT
_________________________________________________________________
Layer (type)                 Output Shape              Param #   
=================================================================
input_1 (InputLayer)         (None, 256, 256, 3)       0         
_________________________________________________________________
block1_conv1 (Conv2D)        (None, 256, 256, 64)      1792      
_________________________________________________________________
block1_conv2 (Conv2D)        (None, 256, 256, 64)      36928     
_________________________________________________________________
block1_pool (MaxPooling2D)   (None, 128, 128, 64)      0         
_________________________________________________________________
block2_conv1 (Conv2D)        (None, 128, 128, 128)     73856     
_________________________________________________________________
block2_conv2 (Conv2D)        (None, 128, 128, 128)     147584    
_________________________________________________________________
block2_pool (MaxPooling2D)   (None, 64, 64, 128)       0         
_________________________________________________________________
block3_conv1 (Conv2D)        (None, 64, 64, 256)       295168    
_________________________________________________________________
block3_conv2 (Conv2D)        (None, 64, 64, 256)       590080    
_________________________________________________________________
block3_conv3 (Conv2D)        (None, 64, 64, 256)       590080    
_________________________________________________________________
block3_pool (MaxPooling2D)   (None, 32, 32, 256)       0         
_________________________________________________________________
block4_conv1 (Conv2D)        (None, 32, 32, 512)       1180160   
_________________________________________________________________
block4_conv2 (Conv2D)        (None, 32, 32, 512)       2359808   
_________________________________________________________________
block4_conv3 (Conv2D)        (None, 32, 32, 512)       2359808   
_________________________________________________________________
block4_pool (MaxPooling2D)   (None, 16, 16, 512)       0         
_________________________________________________________________
block5_conv1 (Conv2D)        (None, 16, 16, 512)       2359808   
_________________________________________________________________
block5_conv2 (Conv2D)        (None, 16, 16, 512)       2359808   
_________________________________________________________________
block5_conv3 (Conv2D)        (None, 16, 16, 512)       2359808   
_________________________________________________________________
block5_pool (MaxPooling2D)   (None, 8, 8, 512)         0         
_________________________________________________________________
global_max_pooling2d_1 (Glob (None, 512)               0         
_________________________________________________________________
dense_1 (Dense)              (None, 4096)              2101248   
_________________________________________________________________
dropout_1 (Dropout)          (None, 4096)              0         
_________________________________________________________________
dense_2 (Dense)              (None, 4096)              16781312  
_________________________________________________________________
dropout_2 (Dropout)          (None, 4096)              0         
_________________________________________________________________
dense_3 (Dense)              (None, 1)                 4097      
=================================================================
Total params: 33,601,345
Trainable params: 18,886,657
Non-trainable params: 14,714,688
_________________________________________________________________
Started at: 2019-05-01 10:13:06.
Epoch 1/20

  1/200 [..............................] - ETA: 23:00 - loss: 0.7104 - acc: 0.5400
  2/200 [..............................] - ETA: 12:02 - loss: 2.4599 - acc: 0.6100
…
